model/net.pt (torch, 3232 bytes, 5 tensors)

fc1.weight f4 [16, 4]
000000 16 36 df 3d 48 22 71 be 6e 75 05 bd ed e1 1b 3c
       0.10898988 -0.23548234 -0.032582693 0.009514314
000010 3e 1f 89 be d0 9f 55 3e b0 7a 2e be 20 50 d8 be
       -0.26781648 0.20861745 -0.17038989 -0.4224863
000020 15 3e 1a be 41 c2 55 be 7f ba 0e 3f 27 0a bf 3c
       -0.15062745 -0.20874883 0.5575332 0.02332027
000030 a6 58 be 3e 47 66 00 3f ab ac f4 3d ba a0 03 3f
       0.37177008 0.5015606 0.11946996 0.51417124
000040 c3 5b 85 be 62 a2 d0 be 5f fb ab 3e 83 63 ee 3e
       -0.2604657 -0.40748888 0.33590218 0.46560296
000050 3a 13 33 3e cb 10 4d be f2 0f 89 be 59 b8 2b bf
       0.17487803 -0.20025937 -0.26769978 -0.6707817
000060 49 87 0d 3f e1 97 35 be 87 b6 9d be c1 0a 4c 3e
       0.55284554 -0.17733718 -0.3080332 0.19925977
000070 01 79 14 bc 47 4f 74 3e 18 20 6f 3e 2e fa 06 3f
       -0.009062053 0.23858367 0.23352087 0.52725494
000080 62 34 ae be ef f6 89 be 9d 3d db 3e 21 3d 0d be
       -0.3402434 -0.26946208 0.42820445 -0.1379285
000090 1a 38 32 3f 7e 38 37 bf 67 0c 13 be cd ca 18 bf
       0.69616854 -0.71570575 -0.143602 -0.5968445
0000a0 2f c5 00 3f 33 4d 25 bf 53 32 88 3e 7e 54 f1 bd
       0.5030088 -0.6457092 0.26600894 -0.11783694
0000b0 6d 84 e5 3a fa ed 42 3f 80 06 3f be c0 37 2a be
       0.001751078 0.76144373 -0.18654823 -0.1662283
0000c0 86 bc 71 3e cf cc 0b 3f 33 c5 64 bc 63 c0 44 be
       0.23607072 0.5460939 -0.013963032 -0.19214015
0000d0 81 54 c8 3d 63 25 7f 3f 19 c8 52 be 9e 98 ae 3d
       0.09781743 0.9966642 -0.20584144 0.08525203
0000e0 89 8b 67 be d2 f0 0a 3f cb 1b c3 3b 2a e2 ae bd
       -0.22611822 0.5427371 0.005954241 -0.08539231
0000f0 19 5c f7 bc 1c f9 83 3f bb 2f f0 3c af c1 8e be
       -0.030195283 1.0310397 0.029319635 -0.27882144

fc1.bias f4 [16]
000000 26 88 c9 be b8 2b 85 bd 06 c8 32 be 8d 67 19 3f
       -0.39361686 -0.06502479 -0.17459115 0.5992363
000010 e1 01 73 3e 5f 5d 96 3e ed 07 92 be cb e2 38 bf
       0.23731185 0.29368111 -0.28521672 -0.7222106
000020 fb 72 83 bd 44 11 09 3f 43 65 a2 3d 39 49 37 3e
       -0.06418415 0.5354197 0.079294704 0.17899026
000030 7d 30 51 be 27 a8 12 3e 2f b5 00 3f bc 4e ea 3e
       -0.20428653 0.14321958 0.50276464 0.45763195

fc2.weight f4 [8, 16]
000000 25 e0 00 be e0 b3 6d bd 25 02 f6 3e 51 ec 70 3e
       -0.12585504 -0.05803287 0.4804851 0.23527648
000010 97 2d 39 3e 3c 65 95 3d 25 c5 0b 3f d4 f2 89 3e
       0.18083797 0.072946995 0.54597694 0.26943076
000020 cb 22 92 3e 5f 74 1f 3f b1 5a 91 3e dc 94 5d be
       0.2854217 0.62286943 0.28389505 -0.21638817
000030 e8 5d 3b 3e 25 ab 99 be 29 05 ca be 4c 95 21 be
       0.18297541 -0.30013385 -0.39457062 -0.15779608
000040 a0 ce 77 3c b0 6b 49 3e c0 df 1f 3e d6 07 b3 bb
       0.015124947 0.19669986 0.15612698 -0.0054635806
000050 05 fa cb bd ec 4e 8a bd 24 4c 7a be b5 cd 43 3d
       -0.09959797 -0.067533344 -0.24443108 0.0478036
000060 69 75 c4 3d 90 d2 c1 3c c2 9a e4 bd 80 51 04 3d
       0.09592707 0.023659974 -0.1116233 0.032304287
000070 e8 0e 9e bc ac 82 0b be 51 f1 66 bd 86 55 bb 3c
       -0.019294217 -0.13624066 -0.05638248 0.02286793
000080 28 fc 7b 3d cc d8 bf 3d cf b4 63 be 4d 2a 9a 3e
       0.06151977 0.093675226 -0.22236942 0.30110398
000090 c1 b9 cf bd f4 eb 8f be 7f d5 de bd e2 4d 3c be
       -0.101428516 -0.28109705 -0.10880565 -0.18389085
0000a0 60 56 02 bd af 4c 89 be 83 24 72 be ab e5 e4 3e
       -0.031820655 -0.26816317 -0.2364674 0.44706473
0000b0 5b d4 10 3e f8 d3 a3 3e d9 b0 fd 3e 80 13 1e 3f
       0.14143507 0.31997657 0.49548987 0.61748505
0000c0 e6 98 2f 3e 38 b0 55 be 40 41 16 bd 60 35 67 be
       0.1714817 -0.20868003 -0.03668332 -0.22578955
0000d0 76 a4 70 3e f8 cd 5e bd 00 e4 ef ba 90 d9 4c 3d
       0.23500237 -0.054395646 -0.0018302202 0.05001217
0000e0 e6 73 2d 3e 14 8a b7 bd a8 6c bd bd d0 97 02 be
       0.16938743 -0.08961883 -0.0924924 -0.12753224
0000f0 70 53 e0 3c 80 23 14 3b 20 bf f3 3c e8 a8 b9 3d
       0.027383536 0.0022604167 0.029754221 0.090654194
000100 40 2c 32 be 50 02 98 3c 6e aa 56 be e6 77 03 be
       -0.17399693 0.01855579 -0.20963451 -0.12838706
000110 c4 35 b1 3d 1e f5 13 3e c8 d8 1e 3e fc 79 b2 bd
       0.08652833 0.14448974 0.15512383 -0.08714673
000120 78 08 b2 3d 78 2b 9b bd 2e 6e 36 be 90 54 ee bc
       0.086930215 -0.075766504 -0.17815468 -0.029093057
000130 2e 85 42 be be 10 15 be 90 2d c1 3d 40 97 3a bd
       -0.18996117 -0.14557168 0.094325185 -0.0455544
000140 4a 3f 2b 3d 90 44 d4 bc dc a1 2a be 47 2c 5c 3e
       0.041808404 -0.0259116 -0.16663307 0.21501265
000150 59 7c 74 be 54 c2 75 be 5d 9c b7 3d e7 4f a8 bd
       -0.2387556 -0.23999912 0.08965371 -0.08218365
000160 72 03 89 bd 16 f0 02 be 3c 02 d5 bd ff bf cb bc
       -0.0669011 -0.12786898 -0.10400817 -0.024871824
000170 ba 65 d8 3d 94 07 99 3d a9 85 1a 3f ee b1 3b 3e
       0.10566278 0.074721485 0.603602 0.18329594
000180 d2 80 51 be 94 c1 c9 3d fd c0 92 be d1 b4 01 3e
       -0.20459297 0.09851375 -0.28662863 0.12666632
000190 15 c5 48 3c 2d ab 0f be 0b ae 4c 3e b1 dc 5f 3e
       0.012254019 -0.14030142 0.19988267 0.21861531
0001a0 4f 05 6d be 71 4b b3 be 2a e5 68 be 52 63 c9 3c
       -0.23146556 -0.35018495 -0.22743669 0.024583492
0001b0 0d df 66 be 17 f9 52 be ea c4 91 bd 45 b6 c1 bd
       -0.22546025 -0.20602833 -0.071176365 -0.09458593
0001c0 40 fa bf 3c c0 a0 2e 3e a2 4c 23 3e 50 8f 1c be
       0.023434758 0.17053509 0.15947202 -0.15289044
0001d0 f0 73 32 be 38 e2 3c 3d 24 5e fb bd 40 e3 bc 3d
       -0.17427039 0.046114177 -0.12273815 0.09223032
0001e0 38 9e d5 bd 5e 75 19 3e 82 64 54 be 58 c9 8d 3d
       -0.104305685 0.14986178 -0.20741466 0.06923169
0001f0 68 f3 6a be f8 72 cf bd 80 a7 d9 3c 60 ce 2a be
       -0.22944415 -0.101293504 0.026569128 -0.16680288

fc2.bias f4 [8]
000000 ba 98 75 3e 32 69 9a be a6 17 37 3d 48 6e 1a be
       0.23984042 -0.30158383 0.044700287 -0.15081131
000010 90 df e8 bd 3c de 99 bc 80 43 11 be f4 4c 5f be
       -0.11370766 -0.018782727 -0.14185905 -0.21806699

fc3.weight f4 [1, 8]
000000 aa 9a ff be b6 70 56 3d 2a 52 56 3f f1 62 9c 3e
       -0.49922687 0.052353583 0.8371912 0.30544236
000010 78 77 16 3d 84 e5 e7 3e 9a ac dc be 3e 5e 0f 3e
       0.036735028 0.45292294 -0.43100435 0.14000794
