model/net.pt (torch, 3232 bytes, 5 tensors)

fc1.weight f4 [16, 4]
-0.4239092 0.834309 0.41668496 0.29166463 0.46427763 -0.6306991 -0.10874342 0.0139177125
-0.51057816 0.87777454 0.039391182 -0.0074421093 0.069835246 0.91024387 0.15466024 0.6595221
0.65771806 -0.52891415 0.3444781 -0.50157756 -0.28690594 -0.039870214 0.48302644 0.42193568
-0.36505467 -0.6817231 0.47258556 0.21089536 0.17388476 0.0122404825 0.39849108 0.6659118
-0.26438543 0.014341351 -0.17883308 0.6988952 -0.019057767 1.0432935 -0.19471237 -0.43451408
0.06663071 0.09328315 0.14965408 0.29933333 0.20666435 0.15234335 0.50089043 -0.1315084
0.47381094 -0.31876928 0.29044998 -0.05993506 -0.41662848 0.47969466 -0.35616183 0.069839954
0.10967987 -0.45309308 -0.09621248 -0.0008341446 0.42792252 0.7527681 -0.17772715 0.25437254
00000000: a00a d9be 4695 553f bb57 d53e 1155 953e
00000010: ccb5 ed3e 7f75 21bf dfb4 debd 1e07 643c
00000020: 40b5 02bf d5b5 603f a658 213d f0dc f3bb
00000030: c805 8f3d be05 693f 415f 1e3e 71d6 283f
00000040: 3660 283f eb66 07bf 6f5f b03e 6367 00bf
00000050: 56e5 92be f34e 23bd 3e4f f73e f407 d83e
00000060: 72e8 babe 6885 2ebf bcf6 f13e f4f4 573e
00000070: d90e 323e 4e8c 483c 0607 cc3e 3279 2a3f
00000080: 875d 87be fcf7 6a3c 0520 37be ccea 323f
00000090: 091f 9cbc a48a 853f ae62 47be a178 debe
000000a0: af75 883d 3c0b bf3d eb3e 193e 3842 993e
000000b0: d29f 533e e5ff 1b3e 5b3a 003f 23aa 06be
000000c0: 5997 f23e ba35 a3be dcb5 943e 777e 75bd
000000d0: 5450 d5be 8a9a f53e d85a b6be 4008 8f3d
000000e0: d79f e03d d1fb e7be 0c0b c5bd 7faa 5aba
000000f0: a918 db3e 69b5 403f 1bfe 35be 1e3d 823e

fc1.bias f4 [16]
0.6551362 0.455489 0.64057845 -0.13970847 0.0004848762 -0.39108762 0.16293956 -0.7509737
0.07977968 0.03268221 -0.6888785 1.1804521 -0.14612034 -0.30758792 0.51527345 0.34064966
00000000: 02b7 273f db35 e93e f3fc 233f bd0f 0fbe
00000010: fb36 fe39 a33c c8be a1d9 263e d03f 40bf
00000020: 8763 a33d c8dd 053d 575a 30bf 0e19 973f
00000030: 92a0 15be 2a7c 9dbe f6e8 033f a269 ae3e

fc2.weight f4 [8, 16]
-0.5419541 0.43866587 -0.41513434 -0.15240765 0.351618 -0.365868 0.13003133 0.25579062
-0.54149705 -0.9862708 -0.119261876 0.06771512 0.14142863 0.13654816 0.4706121 -0.024821052
-0.22735536 0.04282841 -0.0423187 0.130012 0.044102997 -0.017152995 -0.03311473 -0.0064137876
0.10155797 -0.19244266 -0.10456622 -0.05823648 -0.036906958 0.142344 -0.104260266 -0.14556062
-0.18846531 -0.20507255 -0.03178993 -0.13805485 -0.058784366 0.14771613 -0.21381012 -0.1805735
0.19652627 -0.20052236 0.07301073 -0.044813827 -0.26206765 -0.016621888 0.15102862 0.1789617
-0.15085022 0.40322423 -1.0035279 -0.06450387 0.53222394 0.59833145 -0.20270449 0.11234783
0.5015107 -0.41702214 0.2327323 0.26792395 0.19641292 -0.093215495 0.3417971 0.058523674
0.039750356 -0.36621562 0.4006871 0.15525538 0.4011722 0.3017927 -0.29042992 0.48078725
0.52839154 -1.7395421 0.64525914 -0.14160158 0.1981364 0.20164979 -0.3500794 -0.15673827
0.52205575 -0.08408396 1.1388371 0.44741938 -0.46794954 -0.4097541 0.39401102 0.19646144
-0.55369 0.7161773 -0.57674456 0.2524732 -0.09599305 -0.0113223195 -0.06248107 0.3753696
0.20333852 -0.092970334 -0.27485636 -0.6168697 -0.27071545 -0.20569077 -0.27827108 -0.7073803
0.4006871 -0.70060253 -0.58934546 0.34038395 -0.24547759 -0.24560502 0.47241512 0.092671365
-0.27957588 0.22830902 -0.68260884 -0.03891871 0.5010162 0.2720453 -0.4285585 0.06466956
0.4007934 -0.36075845 0.67306715 0.23664321 0.24527708 -0.004366845 0.047816068 0.30089402
00000000: 81bd 0abf d098 e03e 7d8c d4be c010 1cbe
00000010: 4607 b43e 0d53 bbbe ef26 053e fdf6 823e
00000020: 8d9f 0abf 3e7c 7cbf 923f f4bd 3aae 8a3d
00000030: abd2 103e 48d3 0b3e 12f4 f03e 8555 cbbc
00000040: d8cf 68be d86c 2f3d 6056 2dbd de21 053e
00000050: 58a5 343d 7084 8cbc 50a3 07bd c02a d2bb
00000060: a0fd cf3d b00f 45be d026 d6bd 6089 6ebd
00000070: c02b 17bd a0c2 113e 6886 d5bd d80d 15be
00000080: 0dfd 40be 8afe 51be 2836 02bd 405e 0dbe
00000090: e0c7 70bd e642 173e 0af1 5abe 42e8 38be
000000a0: 2f3e 493e bc55 4dbe a686 953d b48e 37bd
000000b0: bb2d 86be a02a 88bc 3fa7 1a3e bc41 373e
000000c0: 7b78 1abe 6873 ce3e 9a73 80bf 9b1a 84bd
000000d0: d43f 083f 402c 193f c491 4fbe 9e16 e63d
000000e0: 0163 003f ed83 d5be 6051 6e3e 542d 893e
000000f0: 7820 493e c4e7 bebd 0800 af3e 85b6 6f3d
00000100: 45d1 223d 9d80 bbbe dc26 cd3e 44fb 1e3e
00000110: 7166 cd3e 9384 9a3e 3bb3 94be bf29 f63e
00000120: ab44 073f 51a9 debf b42f 253f 0100 11be
00000130: 45e4 4a3e 487d 4e3e 9b3d b3be ff7f 20be
00000140: 72a5 053f 3634 acbd 6ac5 913f 2714 e53e
00000150: 1597 efbe 4acb d1be d0bb c93e 302d 493e
00000160: a1be 0dbf 6557 373f 88a5 13bf 2b44 813e
00000170: 0198 c4bd 4081 39bc 27ec 7fbd 7230 c03e
00000180: f937 503e 3b67 bebd f9b9 8cbe 2ceb 1dbf
00000190: 379b 8abe 9aa0 52be 8c79 8ebe e016 35bf
000001a0: dc26 cd3e b05a 33bf 58df 16bf ce46 ae3e
000001b0: 7a5e 7bbe e27f 7bbe 65e0 f13e 7cca bd3d
000001c0: 9224 8fbe d7c9 693e 74bf 2ebf 3a69 1fbd
000001d0: 9942 003f 8649 8b3e 056c dbbe 7971 843d
000001e0: cb34 cd3e 55b5 b8be 214e 2c3f 9952 723e
000001f0: ea29 7b3e c017 8fbb c8da 433d c80e 9a3e

fc2.bias f4 [8]
-0.26201394 -0.074026406 -0.087132506 0.22802599 -0.42103162 0.43666542 0.43417457 -0.16689315
00000000: b126 86be 289b 97bd 8772 b2bd a57f 693e
00000010: 7591 d7be 9c92 df3e 214c de3e 0ae6 2abe

fc3.weight f4 [1, 8]
0.6036978 -0.2320466 0.27706832 -0.5827835 -0.7451926 0.9895456 -0.9796303 -0.42142683
00000000: f08b 1a3f a09d 6dbe e6db 8d3e 4d31 15bf
00000010: f1c4 3ebf dc52 7d3f 0dc9 7abf 42c5 d7be
